Final_Code/my_model_45.pt (torch, 442853 bytes, 6 tensors)

weight f4 [128, 784]
00000000: 83bc 28bd 9546 48bd 0dcc 113c 8dc1 3abd
00000010: 1e2d 37bd c5be 70bd f85e 21bd 89a5 00bd
00000020: dcd4 73bc bdb6 7b3b 9829 ebbc a755 4bbc
00000030: ced4 34bd 7764 01bd 1cf6 08bd 213e 97bc
00000040: c555 81bd 3d7e 8cbd 7023 c1bc 3d80 55bd
00000050: 1da8 39bd fbc8 06bd 5d26 2abd 7135 a73c
00000060: 4827 01bd 73da ccbc 6771 6cbc e46d cebc
00000070: 51c7 0f3b cf70 b4bc 789b 2abd be11 1b3a
00000080: 4fbf 92bc f5e2 ddbc 15e9 5dbd bd1f 0ebd
00000090: 091f a13a aa4c 92bd eecc 88bd c039 e8bb
000000a0: c503 38bc 228f 313c 80d2 9dbd fdf0 313d
000000b0: 4d24 a0bd bec7 99bc 334c 3bbd da8c 403b
000000c0: d99d 9dbb 15db 773c 0a1f 94b9 7a86 dabc
000000d0: aef9 57bd 2c9d 6fbd d0aa 0abd 12ea 44bd
000000e0: 6955 94bc 5fed a4bc fd2e 6ebd ae9e 39bd
000000f0: 0f4d 10bd 173e 07bd 6710 3abd 3f69 aabb
00000100: 1539 27bd c3f6 13bd e457 a43c 29bc d5bc
00000110: 2012 18bd 2b4c ccbc 03e3 13bd 3cf0 6fbd
00000120: a12a a1bd 9f5f 39bd 5682 bc3c 736a 14bd
00000130: 9e6e 55bc 179b 92bc 02a6 493c c930 94bc
00000140: 9740 61bd 2af1 40bc 362d afba e560 8cbc
00000150: 77bc 0bbd 4ad6 9ebc 4d77 7b3c ca36 48bd
00000160: 0297 9abc 3ac7 adbc ddb4 5fbd e7b7 85bd
00000170: 1a86 a1bd beb1 6f3c 9b9f 11bd 65e5 a3bd
00000180: 769a 38bc 0330 ce3c c5b7 0c3d da57 33bd
00000190: b990 8a3d 5de3 20bd d8e6 d3bc 36a2 98bd
000001a0: 7726 7abd 4313 cebc 32bd 40bd 5365 5e39
000001b0: 0190 d5bc e4b6 97bc 5174 76bd 0bdb b5bc
000001c0: 637e 67bc 4858 0cbc 9321 1fbd f496 20bd
000001d0: 8d05 42bd cd6f 34bc bdfc b1bd 3bd2 91bd
000001e0: e1ac a4bd ce67 33be ea36 4abe c244 51be
000001f0: 24a5 91bd 5d36 8b3d 7093 2d3e 9e87 913e
00000200: 6ece 26bc b762 5cbe 1153 13be 17ce 33be
00000210: 43f1 81be 0820 7dbe 8aca 16be fb49 e5bd
00000220: 5f0b b43b 6d39 2bbd af57 12bd 50d7 72bd
00000230: b4b9 2bbd 4d40 02bc 9717 43bc 2e1c 6a3b
00000240: 29b4 0f3d 1a36 c1bd 9b2f eebd 60fa e4bc
00000250: bb36 06be fdd1 41bd 629c bfbc 5058 62be
00000260: 2270 85be f1f3 aabe 3650 e43d 51ff bb3d
00000270: 392c 19bd 0661 563d 7451 5cbd b3f9 e0bd
00000280: d100 eabd 35f8 cdbd 0354 c0bd 2c23 0fbe
00000290: 7de9 57bd 9a92 d3bc 99f8 dcbc 63c1 6cbc
000002a0: 9624 43bd 62d5 82bd a005 f6bc 7ba8 1fbd
000002b0: 23f8 a5bc 1bd5 40bd c2c2 893d ec3e 7a3d
000002c0: dd5e 13be 9868 0cbe 63e6 50be acf9 5bbe
000002d0: 8ba0 af3d 17fc 1fbd 86d3 21bd 872f 7dbd
000002e0: 875c 55bd c32b 2dbe 16a7 e4bd 2ea1 07bd
000002f0: 89bc 143d a774 aabd 9e7b d0bd 80cb f2bd
00000300: df41 d3bc 83ec 57bc bfa8 9dbc 7284 60bd
00000310: b71e 0abd 66c5 51bd 1936 41bd 8ce0 89bc
00000320: cebc 22bb 2f2c 1fbc aea8 413d 2df0 04be
00000330: a1c0 1dbe d8a0 9dbd de58 01be 3650 14be
00000340: 0164 3dbd 0b1c 22bd afe0 1f3e 2585 833e
00000350: 2ae8 063d 4309 8bbd c44b abbb 7a12 15bb
00000360: 4c7c e0bc 3be6 32bd de70 68bd d066 1cbe
00000370: 8ab0 54bd 91d8 d8bc 9112 a0bc abb4 08bd
00000380: 2647 c5bc f814 e4bc e9c5 133b 2fc8 36bd
00000390: f25c 71bd 2ff7 9a3d 8da4 0b3d e7c4 6bbe
000003a0: e52c dcbc e12d f7bd 923f 0fbe 1650 80bd
000003b0: 207c 8b3d 8407 303e a265 103e 23e7 d43d
000003c0: d95c 923d d583 5a3d 606c 233e 399c bbbc
000003d0: 54ae 543e 3347 423e 345f f43d c559 d3bc
000003e0: fd59 76bd 2998 84bc 6bf2 84b8 ba1a 1abd
000003f0: 9cc1 64bc 9f09 1ebd 80ba ef3c 1aa2 e9ba
-0.041195404 -0.048895437 0.008898747 -0.04559474 -0.04472076 -0.058775682 -0.03939721 -0.031407867
-0.014882293 0.003840848 -0.028706357 -0.012410558 -0.04414826 -0.03158995 -0.033437833 -0.018462243
-0.06315187 -0.068600155 -0.023576468 -0.05212425 -0.04532634 -0.032906514 -0.041540492 0.020411225
-0.031531602 -0.025006508 -0.014431334 -0.025198884 0.002193887 -0.022026448 -0.041652173 0.00059154246
-0.017913489 -0.02708576 -0.054177362 -0.034698237 0.0012292574 -0.07143529 -0.06679712 -0.0070869625
-0.0112313675 0.010837348 -0.07706165 0.043442715 -0.07819424 -0.018772002 -0.045726966 0.002938083
-0.0048100767 0.015127917 -0.00028251886 -0.026675452 -0.052728347 -0.0584995 -0.033854306 -0.04807479
-0.018107133 -0.020132719 -0.05815028 -0.045317344 -0.03522974 -0.033018198 -0.0454258 -0.0052005346
-0.040825922 -0.036124002 0.02006144 -0.026090698 -0.03712666 -0.024938663 -0.036105167 -0.058578715
-0.07869459 -0.045257207 0.023011368 -0.03623433 -0.0130268615 -0.017896218 0.012307646 -0.018089669
-0.05499324 -0.011776248 -0.0013364914 -0.017136047 -0.03411528 -0.01938929 0.015348268 -0.048880376
-0.018870834 -0.021213163 -0.054615844 -0.06529217 -0.07886906 0.014629779 -0.035552602 -0.08002738
-0.011267295 0.025169378 0.034354944 -0.043784954 0.06765885 -0.03927933 -0.02586691 -0.07452814
-0.06107184 -0.02515567 -0.04705543 0.00021209316 -0.026069643 -0.018519826 -0.06016952 -0.022199174
-0.014129254 -0.00856597 -0.03885038 -0.03920646 -0.047368575 -0.0110129835 -0.08690784 -0.071201764
-0.080407865 -0.17520067 -0.1974751 -0.20436385 -0.07111576 0.06797478 0.16950774 0.2842378
-0.010181053 -0.21522032 -0.14387156 -0.17559086 -0.2537938 -0.2471925 -0.147257 -0.11195751
0.0054945196 -0.041802812 -0.035728153 -0.05928737 -0.041925147 -0.007949901 -0.01190748 0.0035722363
0.035083923 -0.09434147 -0.11630174 -0.02795142 -0.13106816 -0.0473194 -0.023389999 -0.22104001
-0.26062113 -0.33389238 0.111481115 0.09179557 -0.03739569 0.052338623 -0.053788617 -0.10985126
-0.11425937 -0.10057107 -0.09391024 -0.13978261 -0.052712906 -0.025826741 -0.02697401 -0.014450404
-0.047642313 -0.06388356 -0.03003198 -0.038979035 -0.020259922 -0.047078233 0.067266 0.061095163
-0.14391656 -0.13711774 -0.20400386 -0.21481961 0.08575543 -0.03905877 -0.039508365 -0.061812904
-0.052090194 -0.16911225 -0.111646816 -0.033112697 0.036312614 -0.08323031 -0.10179828 -0.11855221
-0.025788246 -0.013178947 -0.019245503 -0.05481381 -0.0337207 -0.051213644 -0.047170732 -0.016830705
-0.0024831775 -0.009715124 0.047280006 -0.12982245 -0.15405513 -0.07696694 -0.12631556 -0.14483723
-0.04623795 -0.039577525 0.15613054 0.2568752 0.032936253 -0.06788876 -0.005227538 -0.0022746609
-0.02740302 -0.043676596 -0.056748264 -0.15273595 -0.051926173 -0.026470454 -0.019540103 -0.033375423
-0.024081778 -0.02784203 0.0022548384 -0.044624504 -0.05892653 0.07566678 0.034092475 -0.23024331
-0.026876876 -0.120692976 -0.13989094 -0.06265275 0.06810784 0.17190367 0.1410127 0.10395648
0.071466155 0.05334838 0.1595931 -0.022901641 0.20769626 0.18972473 0.11932221 -0.025799641
-0.060144413 -0.016185837 -6.339404e-05 -0.037623145 -0.013962176 -0.038583394 0.029263735 -0.0017824799

bias f4 [128]
00000000: 40d9 373d b534 4f3d 315c 4e3d b1be 29bc
00000010: 58e4 b5bd 028a 203c beac de3c 396a 533c
00000020: fe4a bf3c 47ec 763c df72 073d 16f4 5dbb
00000030: ee49 3cbb c305 f0bc 756e acbb 7c90 39bc
00000040: 239a 883c 1a8b 07bb dc3d 563d b72a 3e3d
00000050: 574a e13b 7de3 353c 3c8e 82bd 8abf fa3c
00000060: 79c4 f4bc 5c84 9ebb dea4 62bb c081 a33b
00000070: d2de c53c 4700 c33d 608b 74bc 3ef2 783d
00000080: 2ac0 be3b 1ec6 b5bc b2e3 69bb 3c54 02bc
00000090: 1ab3 ecbc 459d 6cbd b329 b3bc ccc6 67bc
000000a0: b3c6 0ebd 4551 be3c 34dd 513d 67e8 e13c
000000b0: 305c a03c 869c a03d 9432 1fbd 77f1 1b3c
000000c0: 301c 023d 8645 0e3d 0582 7b3c 24a7 8abc
000000d0: 0fbb c23c 420d e9bd ecd7 cebc fb4b 44bc
000000e0: 3b38 b73c 59b1 783c a51a 65bc 1506 5bbc
000000f0: d601 e63b a79b 23bc a062 723b 0551 5f3c
00000100: 9fb7 a7bb f752 cf3c 1cf3 e0bc 402c 943d
00000110: e52c ff3c 4b24 093d 9c8c 95bd cb52 913d
00000120: bfe6 ae3c e054 6ebd ed7b e33c 34e0 03bd
00000130: 9aac edbc 4219 d13c b592 953d 99dc 343d
00000140: 35d0 653c 0ede b63b a6a0 483b 9949 6e3b
00000150: 93c7 d73b 497f 24bc 82d8 07bb 9053 c23c
00000160: ca91 5b3d 9c2d 5cbc b0c0 0ebd 0a0b 653c
00000170: 71a5 bebc 01ae a4bd 3259 af3c 9b99 5a3d
00000180: fa32 cfbd 953b 873c 9c4c 0f3d 6c79 c2bb
00000190: 6179 83bc e358 03bd 237e 8fbc c911 b5bc
000001a0: 3e55 883c a914 8a3c 1cea ac3b 381d 0bbc
000001b0: 79a3 d83c 783e 81bb c61f c03c 0028 8fbd
000001c0: 077f 833c f2ff 03bb 8ef0 dabc bc9c 863d
000001d0: 975b 93bc d662 e2bb bea0 94bb a5c9 9ebb
000001e0: 5c17 b13a 73e4 6e3c 8026 85bd 8334 873d
000001f0: 55ed efbc b7ca 2f3c 1fdb 133b c621 7dbb
0.04488492 0.050587375 0.05038089 -0.010360406 -0.08881444 0.009798529 0.02718198 0.012903743
0.023351189 0.015070981 0.033068534 -0.003386741 -0.002873059 -0.029299622 -0.005262191 -0.011325952
0.01667506 -0.0020682276 0.052305087 0.046427455 0.006875317 0.011101601 -0.06374785 0.030608911
-0.029878842 -0.004837556 -0.0034583132 0.0049898326 0.0241541 0.09521537 -0.014925808 0.060777895
0.0058212476 -0.022189196 -0.0035688695 -0.007954653 -0.028893996 -0.05776717 -0.02187047 -0.014146518
-0.034857463 0.023232112 0.051236346 0.027576638 0.019575208 0.078423545 -0.038866594 0.009518019
0.031765163 0.03473427 0.015350823 -0.016925402 0.023770837 -0.11379482 -0.025249444 -0.011981006
0.02236568 0.015179002 -0.013983403 -0.013368149 0.007019262 -0.009985841 0.0036985055 0.013630156
-0.005118325 0.025308115 -0.027459674 0.072350025 0.031149337 0.033481877 -0.0730221 0.0709587
0.021350263 -0.05818641 0.027769053 -0.03219624 -0.029012967 0.02552474 0.07303373 0.04415569
0.014026691 0.00558067 0.0030613332 0.0036359786 0.0065850704 -0.010040113 -0.0020728414 0.023721486
0.053605832 -0.0134386085 -0.03485173 0.013979683 -0.023272248 -0.08041001 0.021404836 0.053369146
-0.10117145 0.016507903 0.03498517 -0.005934885 -0.016049089 -0.03206719 -0.017516201 -0.022103207
0.01664221 0.016855555 0.0052769314 -0.008490853 0.026445137 -0.0039442144 0.02345265 -0.06990051
0.016051782 -0.002014157 -0.026726034 0.065728635 -0.01798801 -0.006908755 -0.0045357635 -0.0048458152
0.001351099 0.014580834 -0.06501484 0.06601813 -0.029287973 0.010729483 0.0022561026 -0.0038624867

weight f4 [64, 128]
00000000: 193b 4ebe a956 0fbe 9641 88be 5151 7bba
00000010: 5125 6bbe d3cb d2bd d7b1 92bd c6f3 823e
00000020: 4bcf df3c 336b 1a3c ed38 52bc b295 5b3e
00000030: 8be0 00bd 90c9 993c 9636 64bd 4ccb 06bd
00000040: 0439 a73d 4cbb 1bbe a513 253f 343a 0ebf
00000050: 8190 413e 275e 65be 7c50 ef3d 635f 253f
00000060: ac37 87bd cf9f 863d 0c89 ab3d 5f6b a83c
00000070: c432 9bbc ec32 b6be 3839 09be 31d6 003e
00000080: 3809 efbc fe09 453d afc0 57be 9191 abbd
00000090: e46f d1be ab34 d5be ace9 933d 8222 673e
000000a0: 52d0 56bd c059 23be 71d3 603c 2170 343d
000000b0: 6725 693d 7e8f aabe 7bee e63e 1fdc 8c3e
000000c0: 9a0c cdbe 9fad 043d ff2c 943d ccf2 b73d
000000d0: 6d9f b43e 052a d83e 32ac c33c a6df 08bd
000000e0: 1378 e93d 63bc 343e ea24 4a3d 4999 9e3e
000000f0: f41e 003e 9170 2f3d 2e78 50bc 89f0 b03d
00000100: d1bf 883e 43ab 9cbc 66d6 b2bd d864 a63e
00000110: 8033 1d3d 79e9 39bd c5b9 b7bc 6400 003d
00000120: 635c 403d 4559 e4bb efc5 40be c67a 93bd
00000130: c0ac 91bd 6996 803d 5513 5dbe 4ef8 443e
00000140: e2f5 203d a58e 0e3c 02a5 8a3d b1dc f1bc
00000150: 4376 333c df4b 4c3e 19a9 153f 1f45 7f3c
00000160: dd73 43be 3854 8ebd 88e0 f6be 4a4c ffbb
00000170: fad0 cbbb 5c26 26be a688 103d 4731 343e
00000180: 9d71 9e3e c378 4fbd c0df b6bc 45f6 633c
00000190: 2931 473d 7215 8abd bc92 243d f32a 9abe
000001a0: 6ebe 013d 9072 523d 1371 67bd 2a81 2c3d
000001b0: 1ead 753b f8fd 85be 75a0 1dbe c7aa 9ebe
000001c0: 09a3 c03c 6dcc 983d 0c64 e1bc 7a4f 06bf
000001d0: 36fc 7dbd a30e 55be 889d 91bd 2693 b03c
000001e0: 4b61 983d d539 6dbd f015 3a3c bbeb d73c
000001f0: 52c7 4abd b1b9 9fbd b1b5 633e 0dd5 fbbc
00000200: 61f3 203e bb13 393e 9aeb 0e3b 328b 2a3d
00000210: 3f18 a33e bcfb cdba eaa2 97bd 1363 663c
00000220: e952 813d 0aba a33d 6fae 7fbd b7a6 88bd
00000230: 55a7 84bd 7431 5dbd 9abe 11bd 56bc f8bc
00000240: f636 73bc feb7 1dbe 9538 a7be 37dd 473d
00000250: ca2e 703e 8621 d2be 3a7c 313e 0456 5f3e
00000260: b982 0dbc b4f0 31bb c518 58bd 11c5 303c
00000270: ac08 77bc be41 233c cb27 b63c c532 1e3d
00000280: 1ed1 1cbd 5b09 013d 750d b4bc 57f4 74bd
00000290: 9caf cd3d 1cd7 433e 99da 2e3c e084 853d
000002a0: 0482 c8be fd8f 463e 2791 85be 5802 29bd
000002b0: f3e5 c03b a525 6c3e 80c7 113e 48b8 37bd
000002c0: 97d5 bbbc 2002 983c c12e 84bd 4bb4 7cbd
000002d0: 9951 f93d 9b18 e5bd 6c6d 9bbd fc4b eb3c
000002e0: 3fd2 063c b8dd 423c 24eb 89bd e219 b63e
000002f0: 30c6 1f3e 44f6 253d 6468 ddbd c133 523c
00000300: 8c89 d83e 6f15 02bc 4073 57bd e3cd 643d
00000310: 6781 a23d 53f0 843d 04f0 593e f7be 3ebf
00000320: f5f9 bf3c f0a6 f43d 2c0f 80bd dd66 803d
00000330: 820b a63d 2d72 96bc d3be a8be c957 083e
00000340: baf1 c4ba 3a72 50bc 745f 703d f8d2 81bc
00000350: c784 743d cd9a bcbd 1583 543e f152 463d
00000360: d646 c6bc c626 3e3d 739a 6b3e 74d4 3b3c
00000370: bcf3 95bc 9844 253d 2793 25bd cbbf e93d
00000380: d6f3 e6be f4d8 663e 151e 853d 97fd 0e3e
00000390: 7004 883d 61f1 9a3d 93e3 87bc 9f80 cabd
000003a0: 5368 413a 67ef 3bbe 12eb aabd 5586 aebd
000003b0: 530a 113d c1a5 85be 2b0a dfbd cee2 92bc
000003c0: 0cfa 773d e7a5 f83c 9066 ddbb 5ef6 143d
000003d0: b7d1 36bb c63a 7fbc 0bcc 853c 1ea4 43bd
000003e0: 236d 723c adcc 50bb 161a 043e f669 3e3e
000003f0: ce7e ff3c 1c22 3abd 3805 babc bef4 3c3c
-0.20139731 -0.13997902 -0.26612538 -0.0009587007 -0.22963454 -0.10292783 -0.071628265 0.2557661
0.027320525 0.009424972 -0.012830955 0.21443823 -0.03146414 0.01877287 -0.05571612 -0.032908723
0.08165172 -0.15208167 0.644831 -0.5555756 0.1890278 -0.22399198 0.11685273 0.64598674
-0.066024154 0.0657345 0.08375749 0.020559011 -0.018945105 -0.35585725 -0.13400733 0.12581708
-0.0291792 0.048105232 -0.21069597 -0.08377374 -0.40905678 -0.41641745 0.07222304 0.22571757
-0.052444763 -0.15952206 0.013722287 0.044052247 0.056920435 -0.333126 0.4510382 0.2751169
-0.40048677 0.03239214 0.07235145 0.08981857 0.35277882 0.42219558 0.02388582 -0.033416413
0.113998555 0.17649989 0.04935161 0.30976322 0.12511808 0.04283196 -0.012723966 0.086396284
0.26708844 -0.019124633 -0.087322995 0.32498813 0.038379192 -0.045388673 -0.022427449 0.031250373
0.046963107 -0.0069686496 -0.18825506 -0.072011515 -0.071130276 0.062786885 -0.21589406 0.19235346
0.039296992 0.008701001 0.06769754 -0.02952418 0.010953489 0.19950818 0.5846115 0.015580445
-0.19087167 -0.06949657 -0.4821818 -0.007791077 -0.0062199803 -0.1622557 0.035286568 0.17596923
0.30946055 -0.050652277 -0.02232349 0.013913696 0.048630867 -0.067423716 0.040179 -0.30110893
0.03167575 0.051378787 -0.05650432 0.042115368 0.003748722 -0.26170325 -0.15393241 -0.30989668
0.023515241 0.07460866 -0.027513526 -0.5246502 -0.062008105 -0.20806365 -0.07110125 0.02155454
0.07440432 -0.05791648 0.011357769 0.026357522 -0.049506493 -0.0779909 0.22237279 -0.030741239
0.15717842 0.18073933 0.002180791 0.041636653 0.31854436 -0.0015715281 -0.0740412 0.014061707
0.06314642 0.079944685 -0.062422212 -0.06672423 -0.064772286 -0.05400224 -0.035582162 -0.030363243
-0.014844647 -0.15402219 -0.32660356 0.04879495 0.23455349 -0.410412 0.17332545 0.21810156
-0.008637124 -0.0027151527 -0.052757997 0.010789172 -0.015077751 0.009964405 0.022235772 0.038622636
-0.038285367 0.031503063 -0.021979073 -0.059803333 0.100432605 0.19125026 0.010672235 0.065194845
-0.39161694 0.19390865 -0.26087305 -0.041262 0.005886787 0.23061235 0.1423626 -0.04485348
-0.022928996 0.0185557 -0.0645423 -0.06169538 0.12173767 -0.11186334 -0.0758923 0.028722756
0.0082288375 0.011893682 -0.06734303 0.35566622 0.15602946 0.04051806 -0.108109266 0.012829722
0.4229244 -0.0079396805 -0.052600145 0.05586041 0.07934838 0.06491151 0.21282965 -0.7451014
0.023434618 0.11945903 -0.06252894 0.062696196 0.08107664 -0.01836499 -0.32958087 0.13314737
-0.0015025653 -0.012722546 0.05868478 -0.015847668 0.05969694 -0.092092134 0.20753129 0.048418943
-0.0242037 0.046423696 0.23008136 0.011464227 -0.018304698 0.04034862 -0.04042354 0.11413535
-0.45107907 0.22543699 0.06499878 0.13963924 0.066414714 0.075655706 -0.016588008 -0.09887814
0.0007377911 -0.18353043 -0.08345617 -0.085217156 0.035410237 -0.26103023 -0.10890611 -0.017930415
0.060541198 0.030352546 -0.006756611 0.036367767 -0.0027895996 -0.0155779775 0.016332647 -0.047763936
0.014796528 -0.0031860278 0.12900576 0.18595108 0.031188395 -0.045442685 -0.022707567 0.01153296

bias f4 [64]
00000000: 2c80 1dbe 1086 8f3d b07e 6b3d 24c7 933c
00000010: bf6d e9bd d975 eebd 7c2b d73d ba70 913d
00000020: 2068 14bd b060 18be bfbd 74bc e59d 013b
00000030: fa95 113d 1010 833d a9f0 49bd 5247 1b3e
00000040: 6df1 063e f559 333d f143 0cbe 2cd9 24be
00000050: 136a 19bd c060 4e3c a312 8cbc 61ab 033e
00000060: 0dd1 bd3b 195b 1dbb 156f 6839 4fa5 7ebd
00000070: a0b6 debd b508 c63d fd01 4b3e 3c7e 88bd
00000080: f97f 783d b6b8 d93d 5413 d7bc 687e a73d
00000090: 2646 8bbd 9ad0 a9bd 1c40 1cbc 1484 5e3e
000000a0: 3f6b a03e ef1e 293e 8deb 24be 7f79 39bd
000000b0: b565 803b c212 a8bc 42e4 3b3d 93ea 5d3c
000000c0: 0689 b8bd de7b 193e 0d09 8b3c 22d3 9bbd
000000d0: ed00 363e 70d2 4ebd 564b c43d 18f8 62bd
000000e0: c3aa 443d 30f1 99bd 4d5a 703d e31a 99bd
000000f0: eb6d 01bd 65d8 36bb 4a48 9ebd 0436 463d
-0.15380925 0.07007992 0.057493865 0.018039294 -0.113978855 -0.116435714 0.10506341 0.07101579
-0.036232114 -0.14880633 -0.014937817 0.001977795 0.03554342 0.06399548 -0.049301777 0.15163925
0.13178034 0.04378696 -0.13697793 -0.1609847 -0.037454676 0.012596309 -0.01709873 0.12858345
0.005792743 -0.0024010597 0.00022166625 -0.06216937 -0.10874677 0.096696295 0.19824977 -0.06664702
0.06066892 0.10630934 -0.026254334 0.08178407 -0.06800489 -0.08291741 -0.009536769 0.21730071
0.31331822 0.16515706 -0.1610548 -0.045281883 0.0039183744 -0.020516757 0.04587198 0.013544696
-0.0901051 0.14988658 0.01697209 -0.0760863 0.1777379 -0.050493658 0.09584682 -0.055412382
0.048014414 -0.07516706 0.058679868 -0.07475831 -0.031598967 -0.0027899977 -0.07728632 0.048391357

weight f4 [17, 64]
00000000: cc52 603b 9b5d e43e 605d e9bd 921b 0c3d
00000010: 0a77 03bf b82f 5c3e 513c 86bd f823 243f
00000020: 9ae3 733f dc5f 6a3e 4fa4 b33e 516b febd
00000030: 674c 813d b439 4abf c840 083e 9f65 4b3e
00000040: 5909 083e dd93 b73e 3c9a 3bbf 530f eb3e
00000050: 8e13 c4be 5832 52bf 09b2 b13e 8726 173f
00000060: 38e9 0fbf c94d 0bbe 22db 2abe 141f 60bd
00000070: fbbd b03d 6884 59be 6550 63be 8113 0d3f
00000080: 9156 00be 962b b8ba f9a1 a7be ca3a 75be
00000090: c8b7 8f3d 385f 46be 5759 99be a7ef 0d3f
000000a0: 81b6 bbbe 1cb9 cebe f478 a43e f12a f5be
000000b0: 4b58 58bc 19a0 983d 89bf 1a3f 5ce3 44bf
000000c0: f288 dfbe aaad 76be 7008 aebe 5192 243f
000000d0: 6f78 fd3e dcca b13e 1e7e 4c3f c150 693e
000000e0: f9b4 e0bd efbd b6be 542d 743e d8b7 8d3d
000000f0: 1825 213e 67d7 c63e 1189 473e 8140 853e
00000100: 4604 ecbe 5b17 0d3e 9179 683e 7350 683d
00000110: 32de 053f 0fa4 173b b433 b2be b5bb 013e
00000120: 53fb 013d 9ede 5c3e c2f9 29bf b481 3cbd
00000130: 1940 f53d 2c2e 7b3d bcbe 5cbd e1dc 8a3d
00000140: 602d f83e 1020 693d 4863 ef3e abde 12bf
00000150: 8169 acbe 0629 02bf ecda c8bd 1721 8abe
00000160: 3ca4 c43e 81b0 ce3e d8ce 093f 16cc bc3e
00000170: 38f8 cd3d 69f1 3c3e 6527 f63e 7895 64be
00000180: 6ade be3c 625d 03be aa39 103f 376b 833f
00000190: 738b d13e 0afa 0abe 2c55 8cbe ca16 2a3e
000001a0: 3fa2 903d a45d 0b3e 634c 1e3e a15f f93d
000001b0: 5a25 e33e c782 4abf 716b 3f3e 829b 003f
000001c0: 9790 db3e 76b1 cabc 2437 d33d 8f0b 13bf
000001d0: f4dd 72be 838c c0bc 47e0 98be 8153 1abe
000001e0: e759 c53e bd17 ad3e 98b6 febe d954 68bd
000001f0: 894f 1abe e8f4 cc3e 641a d6be fa16 8bbe
00000200: 74fd 293e c53a e53e 02a5 d6be 9eb1 843d
00000210: 1f89 903d 0555 1e3f 452c 3dbd 81a6 9c3e
00000220: 229a 853e 3fe9 40be d7d5 58bf 8e99 b5bd
00000230: 9f6f 30bc 3a6d 5d3d f643 32be 7ba4 0ebf
00000240: 7290 253f 4a58 5e3e 8647 fa3e 7276 dfbe
00000250: 6a00 ff3e 9cc9 c53d 4353 28bf 62da 2e3f
00000260: 5b3c 9dbb c604 e0bd d39c 033f bf20 febe
00000270: b36a 883e ef9c e2be 5bbd 4e3e c6fc 0a3d
00000280: 8f04 613d 9130 123e 28e4 d8be b724 be3d
00000290: 9eb8 573d 574f 2c3d 1b6f 42bf 3d45 a43e
000002a0: 909a 723d 0d5e abbd 2db2 71be af09 543e
000002b0: 4f7b f03d 5e6f 1e3e 2eb2 34bf 5134 7a3d
000002c0: 4b3f ad3e c91a 0b3e cdf8 67bd 9792 fe3e
000002d0: 1eb2 173f 4505 0d3d 56d4 e9bd c2e7 823e
000002e0: dfe1 173f 7c32 da3e 7abd af3e 60c2 94bc
000002f0: a32b 813d 73e5 9f3e e2b6 fc3e b5b7 d13c
00000300: ae5e c5be 7ddd d63e 2d16 c13e 0ae9 d33d
00000310: fc43 b63e ccb7 7e3e 2628 7d3e 9189 3abf
00000320: a19e f33e 58e6 08bc cbe5 db3e 50bf b23d
00000330: 2904 c3bd efbc 373f aa45 be3e 03ec 303f
00000340: 9b6b d43e 68b8 603e f73a e2be ed58 1ebe
00000350: 903f 563d 5f50 cb3d 8fc2 68be 976e 82be
00000360: 9b6a 17be 4c23 01bf d454 913e a778 29bf
00000370: e203 44be 335a cfbe 1777 933e 85fe bfbe
00000380: c8a3 91be a2fd cb3d ac34 a53e 187c 89be
00000390: 3ac6 b0be 83fe 40bf 24f6 91bd 84db bf3e
000003a0: c1ef 123f f892 e23e a567 4d3e 0f74 4ebd
000003b0: 1c7d d43e d32c f13e 3a43 04bd ecd5 f1be
000003c0: ee85 babd 012c 1e3f 5605 debe 2ac2 f2bd
000003d0: be67 d73e ace2 5c3e fe2c 333d 61dd efbe
000003e0: 332e 97be d3e5 83be e288 103e c36d b6b9
000003f0: 91f0 b63d e632 1ebf c114 07bf d1eb 8f3d
0.0034229038 0.44602665 -0.11394763 0.03420598 -0.51353514 0.21502578 -0.06554473 0.64117384
0.9526917 0.2288813 0.35086295 -0.12422813 0.06313401 -0.789943 0.13305962 0.19862984
0.13284816 0.35854998 -0.7328222 0.4591013 -0.3829617 -0.8210807 0.34706143 0.59043163
-0.5621524 -0.13603891 -0.16685155 -0.05471714 0.08629986 -0.21241915 -0.22198637 0.55107886
-0.12533022 -0.0014051076 -0.32740763 -0.23948207 0.07017475 -0.1937226 -0.29950973 0.55443805
-0.36662677 -0.40375602 0.3212353 -0.47884324 -0.013204644 0.07452411 0.6044851 -0.7690942
-0.43659168 -0.24089685 -0.33990812 0.6428576 0.49505946 0.34725082 0.7987994 0.22784711
-0.10972018 -0.35691783 0.23845416 0.06919831 0.15736806 0.38836214 0.1948588 0.26025775
-0.4609701 0.1377844 0.22702624 0.056717347 0.5229217 0.0023138558 -0.3480507 0.12669261
0.031733822 0.21569297 -0.66396725 -0.046022132 0.11975116 0.06132333 -0.053892836 0.067804106
0.48472118 0.056915343 0.46755433 -0.57371014 -0.33674243 -0.50843847 -0.09807381 -0.2697837
0.3840655 0.40369037 0.53831244 0.36874455 0.100571096 0.18451466 0.4807693 -0.22322643
0.023299415 -0.12828591 0.5633799 1.0267094 0.40926704 -0.13571945 -0.2740873 0.16610256
0.07062196 0.1360994 0.15458827 0.12176443 0.44364434 -0.791058 0.1869333 0.50237286
0.4288375 -0.024742823 0.103132516 -0.5743951 -0.23717481 -0.023504501 -0.2985861 -0.15070917
0.38545153 0.33807173 -0.49748683 -0.056721542 -0.15069403 0.400306 -0.4181701 -0.27165967
0.16600591 0.447714 -0.41922766 0.0647919 0.07057404 0.6184848 -0.046184797 0.30595782
0.26094157 -0.18838976 -0.84701294 -0.08867179 -0.0107688 0.054059245 -0.17408738 -0.5571973
0.6467353 0.21713367 0.48882693 -0.43645054 0.49805003 0.096575946 -0.6575205 0.68301976
-0.0047984547 -0.109384105 0.5141117 -0.49634358 0.26643905 -0.44260356 0.20189421 0.03393247
0.054935988 0.14276339 -0.4236157 0.092843466 0.0526663 0.042067852 -0.75950783 0.32084075
0.059229434 -0.08367548 -0.23603125 0.20706819 0.11742269 0.1547217 -0.7058438 0.06108505
0.3383735 0.13584436 -0.05663376 0.49721214 0.5925616 0.034428854 -0.11417453 0.25567442
0.59329027 0.42616642 0.34324247 -0.018159091 0.06307151 0.31229743 0.4935828 0.025600294
-0.38548797 0.41965857 0.3771223 0.10347183 0.35598743 0.248748 0.24722347 -0.7286616
0.47581962 -0.0083556995 0.42948756 0.08727896 -0.09522278 0.71772665 0.37162524 0.69110125
0.41488346 0.21945345 -0.44185612 -0.1546361 0.05230671 0.09927439 -0.22730468 -0.25474998
-0.1478676 -0.50444484 0.2838503 -0.66199726 -0.19142106 -0.40498504 0.28801796 -0.3749887
-0.28445268 0.09960486 0.32266748 -0.2685249 -0.34526235 -0.75388354 -0.07127026 0.37472165
0.57397085 0.44252753 0.20059069 -0.05040365 0.415017 0.4710451 -0.032290675 -0.47233522
-0.09107576 0.61785895 -0.43363446 -0.1185344 0.42071337 0.21570843 0.04374408 -0.46848586
-0.29527435 -0.2576128 0.14114717 -0.00034795524 0.08932603 -0.61796415 -0.5276604 0.070274

bias f4 [17]
00000000: 393b 0b3e 06f5 b23d ffe9 4cbb b453 b93e
00000010: e4fc 1b3e 6c4b a23d 6042 83bc 4092 f9bd
00000020: f6f5 63bd 5be5 903d 7dde bcbd a96e d6bd
00000030: 23c4 cf3d 10f8 ee3d 0c76 a7be 7453 23be
00000040: 8cca 35be
0.1359681 0.08738141 -0.0031267402 0.36196673 0.15233189 0.07924542 -0.016022861 -0.12186098
-0.05565449 0.07074996 -0.09222124 -0.104703255 0.10144832 0.11668408 -0.3270725 -0.15949804
-0.17753047
